…
 data are taken only once.\nSo, we have assigned an index to every message to avoid repetition.\n5.3. Model’s Summary\nWhile constructing our model, Bert layer is used as the base layer.\nFor taking input data, we have used an input layer. After the BERT\nlayer, we have included two dense layers along with dropout. For\nclubbing the Bert layer with the layers added afterwards, a lambda\nlayer included in between.\n70 V. Khan and T.A. Meenai / Human-Centric Intelligent Systems 1(3-4) 66–74\nTable 2 Our model’s summary\nLayer type Output shape Param\nInput layer [(None, 38)] 0\nBert model layer (None, 38, 768) 108890112\nLambda layer (None, 768) 0\nDropout layer (None, 768) 0\nDense layer (None, 768) 590592\nDropout layer (None, 768) 0\nDense layer (None, 7) 5383\nTotal params: 109,486,087; Trainable params: 109,486,087 height; Non-trainable\nparams: 0.\nTable 3 Hyperparameters used in other ML models\nModel name Hyper parameter Values taken\nNaive Alpha 1.0\nbayes Algorithm Gaussian\nLogistic C 1.0\nregression Max. iteration 50, 100, 150\nPenalty Euclidean distance (L2)\nTolerance 0.01, 0.001, 0.0001\nDecision tree Max. depth 10, 20, 50,8 0\nRandom Max. 
…
