…
Model with 100,000 embeddings, while DistilBERT does not. Also, the BERTPooler output of KoBERT was designed to create an output feature in a size of 768; we can expect KoBERT to be trained for the classification without any problem. In GPT2, there would be a huge loss expected between the layer lm_head and output layer, while the loss could be minimal in DistilBERT and KoBERT, as shown in Table 1.     TABLE 1. Network Structures for Conventional Classification Task (DistilBERT, GPT2, KoBERT). DistilBertClassifier(   (bert): DistilBertModel(     (embeddings): Embeddings(       (word_embeddings): Embedding(119547, 768, padding_idx=0)       (position_embeddings): Embedding(512, 768)       (LayerNorm): LayerNorm((768,), eps=1e-12, elementwise_affine=True)       (dropout): Dropout(p=0.1, inplace=False)     )     (transformer): Transformer(       (layer): ModuleList(         (0-5): 6 x TransformerBlock(           (attention): MultiHeadSelfAttention(             (dropout): Dropout(p=0.1, inplace=False)             (q_lin): Linear(in_features=768, out_features=768, bias=True)             (k_lin): Linear(in_features=768, out_features=768, bias=True)             (v_lin): Linear(in_features=768, out_features=768, bias=True)             (out_lin): Linear(in_features=768, out_features=768, bias=True)           )           (sa_layer_norm): LayerNorm((768,), eps=1e-12, elementwise_affine=True)           (ffn): FFN(             (dropout): Dropout(p=0.1, inplace=False)             (lin1): Linear(in_features=768, out_features=3072, bias=True)             (lin2): Linear(in_features=3072, out_features=768, bias=True)             (activation): GELUActivation()           )           (output_layer_norm): LayerNorm((768,), eps=1e-12, elementwise_affine=True)         )       )     )   )   (pre_classifier): Linear(in_features=768, out_features=768, bias=True)   (classifier): Linear(in_features=768, out_features=775, bias=True)   (dropout): Dropout(p=0.1, inplace=False) )  \nGPT2Classifier(   (gpt2): GPT2LMHeadModel(     (transformer): GPT2Model(       (wte): Embedding(100000, 768)       (wpe): Embedding(1024, 768)       (drop): Dropout(p=0.1, inplace=False)       (h): ModuleList(         (0-11): 12 x GPT2Block(           (ln_1): LayerNorm((768,), eps=1e-05, elementwise_affine=True)           (attn): GPT2Attention(             (c_attn): Conv1D()             (c_proj): Conv1D()             (attn_dropout): Dropout(p=0.1, inplace=False)             (resid_dropout): Dropout(p=0.1, inplace=False)           )           (ln_2): LayerNorm((768,), eps=1e-05, elementwise_affine=True)           (mlp): GPT2MLP(             (c_fc): Conv1D()             (c_proj): Conv1D()             (act): NewGELUActivation()             (dropout): Dropout(p=0.1, inplace=False)           )         )       )       (ln_f): LayerNorm((768,), eps=1e-05, elementwise_affine=True)     )     (lm_head): Linear(in_features=768, out_features=100000, bias=False)   )   (drop): Dropout(p=0.1, inplace=False)   (out): Linear(in_features=100000, out_features=775, bias=True) )  \nkoBertClassifier(   (bert): BertModel(     (embeddings): BertEmbeddings(       (word_embeddings): Embedding(8002, 768, padding_idx=1)       (position_embeddings): Embedding(512, 768)       (token_type_embeddings): Embedding(2, 768)       (LayerNorm): LayerNorm((768,), eps=1e-12, elementwise_affine=True)       (dropout): Dropout(p=0.1, inplace=False)     )     (encoder): BertEncoder(       (layer): ModuleList(         (0-11): 12 x BertLayer(           (attention): BertAttention(             (self): BertSelfAttention(               (query): Linear(in_features=768, out_features=768, bias=True)               (key): Linear(in_features=768, out_features=768, bias=True)               (value): Linear(in_features=768, out_features=768, bias=True)               (dropout): Dropout(p=0.1, inplace=False)             )             (output): BertSelfOutput(               (dense): Linear(in_features=768, out_features=768, bias=True)               (LayerNorm): LayerNorm((768,), eps=1e-12, elementwise_affine=True)               (dropout): Dropout(p=0.1, inplace=False)             )           )           (intermediate): BertIntermediate(             (dense): Linear(in_features=768, out_features=3072, bias=True)             (intermediate_act_fn): GELUActivation()           )           (output): BertOutput(             (dense): Linear(in_features=3072, out_features=768, bias=True)             (LayerNorm): LayerNorm((768,), eps=1e-12, elementwise_affine=True)             (dropout): Dropout(p=0.1, inplace=False)           )         )       )     )     (pooler): BertPooler(       (dense): Linear(in_features=768, out_features=768, bias=True)       (activation): Tanh()     )   )   (pre_classifier): Linear(in_features=768, out_features=768, bias=True)   (classifier): Linear(in_features=768, out_features=775, bias=True)   (dropout): Dropout(p=0.1, inplace=False) ) \nThis article has been accepted for publication in IEEE Access. This is the author's version which has not been fully edited and \ncontent may change prior to final publication. Citation information: DOI 10.1109/ACCESS.2024.3373470\nThis work is licensed under a Creative Commons Attribution-NonCommercial-No
…
